…
.0, warmup_momentum=0.8, warmup_bias_lr=0.1, box=7.5, cls=0.5, dfl=1.5, fl_gamma=0.0, label_smoothing=0.0, nbs=64, hsv_h=0.015, hsv_s=0.7, hsv_v=0.4, degrees=0.0, translate=0.1, scale=0.5, shear=0.0, perspective=0.0, flipud=0.0, fliplr=0.5, mosaic=1.0, mixup=0.0, copy_paste=0.0, cfg=None, v5loader=False, tracker=botsort.yaml, save_dir=/home/irikos/Work/ultralytics/runs/segment/yoloV8m_seg_bg_0
Overriding model.yaml nc=80 with nc=1

                   from  n    params  module                                       arguments                     
  0                  -1  1      1392  ultralytics.nn.modules.Conv                  [3, 48, 3, 2]                 
  1                  -1  1     41664  ultralytics.nn.modules.Conv                  [48, 96, 3, 2]                
  2                  -1  2    111360  ultralytics.nn.modules.C2f                   [96, 96, 2, True]             
  3                  -1  1    166272  ultralytics.nn.modules.Conv                  [96, 192, 3, 2]               
  4                  -1  4    813312  ultralytics.nn.modules.C2f                   [192, 192, 4, True]           
  5                  -1  1    664320  ultralytics.nn.modules.Conv                  [192, 384, 3, 2]              
  6                  -1  4   3248640  ultralytics.nn.modules.C2f                   [384, 384, 4, True]           
  7                  -1  1   1991808  ultralytics.nn.modules.Conv                  [384, 576, 3, 2]              
  8                  -1  2   3985920  ultralytics.nn.modules.C2f                   [576, 576, 2, True]           
  9                  -1  1    831168  ultralytics.nn.modules.SPPF                  [576, 576, 5]                 
 10                  -1  1         0  torch.nn.modules.upsampling.Upsample         [None, 2, 'nearest']          
 11             [-1, 6]  1         0  ultralytics.nn.modules.Concat                [1]                           
 12                  -1  2   1993728  ultralytics.nn.modules.C2f                   [960, 384, 2]                 
 13                  -1  1         0  torch.nn.modules.upsampling.Upsample         [None, 2, 'nearest']          
 14             [-1, 4]  1         0  ultralytics.nn.modules.Concat                [1]                           
 15                  -1  2    517632  ultralytics.nn.modules.C2f                   [576, 192, 2]                 
 16                  -1  1    332160  ultralytics.nn.modules.Conv                  [192, 192, 3, 2]              
 17            [-1, 12]  1         0  ultralytics.nn.modules.Concat                [1]                           
 18                  -1  2   1846272  ultralytics.nn.modules.C2f                   [576, 384, 2]                 
 19                  -1  1   1327872  ultralytics.nn.modules.Conv                  [384, 384, 3, 2]              
 20             [-1, 9]  1         0  ultralytics.nn.modules.Concat                [1]                           
 21                  -1  2   4207104  ultralytics.nn.modules.C2f                   [960, 576, 2]                 
 22        [15, 18, 21]  1   5159603  ultralytics.nn.modules.Segment               [1, 32, 192, [192, 384, 576]] 
YOLOv8m-seg summary: 331 layers, 27240227 parameters, 27240211 gradients, 110.4 GFLOPs

Transferred 531/537 items from pretrained weights
ClearML Task: created new task id=792df55bf5ee4dcc818e856b9a42c64f
2023-03-21 15:40:00,206 - clearml.Task - INFO - No repository found, storing script code instead
ClearML results page: https://app.clear.ml/projects/83586dfcda284ba6b24cfdeb1d9c74b0/experiments/792df55bf5ee4dcc818e856b9a42c64f/output/log
…
