…
.0, warmup_momentum=0.8, warmup_bias_lr=0.1, box=7.5, cls=0.5, dfl=1.5, fl_gamma=0.0, label_smoothing=0.0, nbs=64, hsv_h=0.015, hsv_s=0.7, hsv_v=0.4, degrees=0.0, translate=0.1, scale=0.5, shear=0.0, perspective=0.0, flipud=0.0, fliplr=0.5, mosaic=1.0, mixup=0.0, copy_paste=0.0, cfg=None, v5loader=False, tracker=botsort.yaml, save_dir=/home/irikos/Work/ultralytics/runs/segment/yoloV8l_seg_bg_9
Overriding model.yaml nc=80 with nc=1

                   from  n    params  module                                       arguments                     
  0                  -1  1      1856  ultralytics.nn.modules.Conv                  [3, 64, 3, 2]                 
  1                  -1  1     73984  ultralytics.nn.modules.Conv                  [64, 128, 3, 2]               
  2                  -1  3    279808  ultralytics.nn.modules.C2f                   [128, 128, 3, True]           
  3                  -1  1    295424  ultralytics.nn.modules.Conv                  [128, 256, 3, 2]              
  4                  -1  6   2101248  ultralytics.nn.modules.C2f                   [256, 256, 6, True]           
  5                  -1  1   1180672  ultralytics.nn.modules.Conv                  [256, 512, 3, 2]              
  6                  -1  6   8396800  ultralytics.nn.modules.C2f                   [512, 512, 6, True]           
  7                  -1  1   2360320  ultralytics.nn.modules.Conv                  [512, 512, 3, 2]              
  8                  -1  3   4461568  ultralytics.nn.modules.C2f                   [512, 512, 3, True]           
  9                  -1  1    656896  ultralytics.nn.modules.SPPF                  [512, 512, 5]                 
 10                  -1  1         0  torch.nn.modules.upsampling.Upsample         [None, 2, 'nearest']          
 11             [-1, 6]  1         0  ultralytics.nn.modules.Concat                [1]                           
 12                  -1  3   4723712  ultralytics.nn.modules.C2f                   [1024, 512, 3]                
 13                  -1  1         0  torch.nn.modules.upsampling.Upsample         [None, 2, 'nearest']          
 14             [-1, 4]  1         0  ultralytics.nn.modules.Concat                [1]                           
 15                  -1  3   1247744  ultralytics.nn.modules.C2f                   [768, 256, 3]                 
 16                  -1  1    590336  ultralytics.nn.modules.Conv                  [256, 256, 3, 2]              
 17            [-1, 12]  1         0  ultralytics.nn.modules.Concat                [1]                           
 18                  -1  3   4592640  ultralytics.nn.modules.C2f                   [768, 512, 3]                 
 19                  -1  1   2360320  ultralytics.nn.modules.Conv                  [512, 512, 3, 2]              
 20             [-1, 9]  1         0  ultralytics.nn.modules.Concat                [1]                           
 21                  -1  3   4723712  ultralytics.nn.modules.C2f                   [1024, 512, 3]                
 22        [15, 18, 21]  1   7889779  ultralytics.nn.modules.Segment               [1, 32, 256, [256, 512, 512]] 
YOLOv8l-seg summary: 401 layers, 45936819 parameters, 45936803 gradients, 220.8 GFLOPs

Transferred 651/657 items from pretrained weights
ClearML Task: created new task id=6563f562f8604c9f8dc9fb7eeb5bc4a0
2023-03-26 16:58:48,468 - clearml.Task - INFO - No repository found, storing script code instead
ClearML results page: https://app.clear.ml/projects/83586dfcda284ba6b24cfdeb1d9c74b0/experiments/6563f562f8604c9f8dc9fb7eeb5bc4a0/output/log
…
