…
.0, warmup_momentum=0.8, warmup_bias_lr=0.1, box=7.5, cls=0.5, dfl=1.5, fl_gamma=0.0, label_smoothing=0.0, nbs=64, hsv_h=0.015, hsv_s=0.7, hsv_v=0.4, degrees=0.0, translate=0.1, scale=0.5, shear=0.0, perspective=0.0, flipud=0.0, fliplr=0.5, mosaic=1.0, mixup=0.0, copy_paste=0.0, cfg=None, v5loader=False, tracker=botsort.yaml, save_dir=/home/irikos/Work/ultralytics/runs/segment/yoloV8x_seg_bg_0
Overriding model.yaml nc=80 with nc=1

                   from  n    params  module                                       arguments                     
  0                  -1  1      2320  ultralytics.nn.modules.Conv                  [3, 80, 3, 2]                 
  1                  -1  1    115520  ultralytics.nn.modules.Conv                  [80, 160, 3, 2]               
  2                  -1  3    436800  ultralytics.nn.modules.C2f                   [160, 160, 3, True]           
  3                  -1  1    461440  ultralytics.nn.modules.Conv                  [160, 320, 3, 2]              
  4                  -1  6   3281920  ultralytics.nn.modules.C2f                   [320, 320, 6, True]           
  5                  -1  1   1844480  ultralytics.nn.modules.Conv                  [320, 640, 3, 2]              
  6                  -1  6  13117440  ultralytics.nn.modules.C2f                   [640, 640, 6, True]           
  7                  -1  1   3687680  ultralytics.nn.modules.Conv                  [640, 640, 3, 2]              
  8                  -1  3   6969600  ultralytics.nn.modules.C2f                   [640, 640, 3, True]           
  9                  -1  1   1025920  ultralytics.nn.modules.SPPF                  [640, 640, 5]                 
 10                  -1  1         0  torch.nn.modules.upsampling.Upsample         [None, 2, 'nearest']          
 11             [-1, 6]  1         0  ultralytics.nn.modules.Concat                [1]                           
 12                  -1  3   7379200  ultralytics.nn.modules.C2f                   [1280, 640, 3]                
 13                  -1  1         0  torch.nn.modules.upsampling.Upsample         [None, 2, 'nearest']          
 14             [-1, 4]  1         0  ultralytics.nn.modules.Concat                [1]                           
 15                  -1  3   1948800  ultralytics.nn.modules.C2f                   [960, 320, 3]                 
 16                  -1  1    922240  ultralytics.nn.modules.Conv                  [320, 320, 3, 2]              
 17            [-1, 12]  1         0  ultralytics.nn.modules.Concat                [1]                           
 18                  -1  3   7174400  ultralytics.nn.modules.C2f                   [960, 640, 3]                 
 19                  -1  1   3687680  ultralytics.nn.modules.Conv                  [640, 640, 3, 2]              
 20             [-1, 9]  1         0  ultralytics.nn.modules.Concat                [1]                           
 21                  -1  3   7379200  ultralytics.nn.modules.C2f                   [1280, 640, 3]                
 22        [15, 18, 21]  1  12317171  ultralytics.nn.modules.Segment               [1, 32, 320, [320, 640, 640]] 
YOLOv8x-seg summary: 401 layers, 71751811 parameters, 71751795 gradients, 344.5 GFLOPs

Transferred 651/657 items from pretrained weights
ClearML Task: created new task id=72b9aba5098440d9a6f04f9e53cf5f78
2023-03-27 16:50:34,597 - clearml.Task - INFO - No repository found, storing script code instead
ClearML results page: https://app.clear.ml/projects/83586dfcda284ba6b24cfdeb1d9c74b0/experiments/72b9aba5098440d9a6f04f9e53cf5f78/output/log
…
