…
.0, warmup_momentum=0.8, warmup_bias_lr=0.1, box=7.5, cls=0.5, dfl=1.5, fl_gamma=0.0, label_smoothing=0.0, nbs=64, hsv_h=0.015, hsv_s=0.7, hsv_v=0.4, degrees=0.0, translate=0.1, scale=0.5, shear=0.0, perspective=0.0, flipud=0.0, fliplr=0.5, mosaic=1.0, mixup=0.0, copy_paste=0.0, cfg=None, v5loader=False, tracker=botsort.yaml, save_dir=/home/irikos/Work/ultralytics/runs/segment/yoloV8s_seg_bg_0
Overriding model.yaml nc=80 with nc=1

                   from  n    params  module                                       arguments                     
  0                  -1  1       928  ultralytics.nn.modules.Conv                  [3, 32, 3, 2]                 
  1                  -1  1     18560  ultralytics.nn.modules.Conv                  [32, 64, 3, 2]                
  2                  -1  1     29056  ultralytics.nn.modules.C2f                   [64, 64, 1, True]             
  3                  -1  1     73984  ultralytics.nn.modules.Conv                  [64, 128, 3, 2]               
  4                  -1  2    197632  ultralytics.nn.modules.C2f                   [128, 128, 2, True]           
  5                  -1  1    295424  ultralytics.nn.modules.Conv                  [128, 256, 3, 2]              
  6                  -1  2    788480  ultralytics.nn.modules.C2f                   [256, 256, 2, True]           
  7                  -1  1   1180672  ultralytics.nn.modules.Conv                  [256, 512, 3, 2]              
  8                  -1  1   1838080  ultralytics.nn.modules.C2f                   [512, 512, 1, True]           
  9                  -1  1    656896  ultralytics.nn.modules.SPPF                  [512, 512, 5]                 
 10                  -1  1         0  torch.nn.modules.upsampling.Upsample         [None, 2, 'nearest']          
 11             [-1, 6]  1         0  ultralytics.nn.modules.Concat                [1]                           
 12                  -1  1    591360  ultralytics.nn.modules.C2f                   [768, 256, 1]                 
 13                  -1  1         0  torch.nn.modules.upsampling.Upsample         [None, 2, 'nearest']          
 14             [-1, 4]  1         0  ultralytics.nn.modules.Concat                [1]                           
 15                  -1  1    148224  ultralytics.nn.modules.C2f                   [384, 128, 1]                 
 16                  -1  1    147712  ultralytics.nn.modules.Conv                  [128, 128, 3, 2]              
 17            [-1, 12]  1         0  ultralytics.nn.modules.Concat                [1]                           
 18                  -1  1    493056  ultralytics.nn.modules.C2f                   [384, 256, 1]                 
 19                  -1  1    590336  ultralytics.nn.modules.Conv                  [256, 256, 3, 2]              
 20             [-1, 9]  1         0  ultralytics.nn.modules.Concat                [1]                           
 21                  -1  1   1969152  ultralytics.nn.modules.C2f                   [768, 512, 1]                 
 22        [15, 18, 21]  1   2770931  ultralytics.nn.modules.Segment               [1, 32, 128, [128, 256, 512]] 
YOLOv8s-seg summary: 261 layers, 11790483 parameters, 11790467 gradients, 42.7 GFLOPs

Transferred 411/417 items from pretrained weights
ClearML Task: created new task id=c28dc252cc1c4e85b4c16725fa197722
2023-03-20 16:45:10,984 - clearml.Task - INFO - No repository found, storing script code instead
ClearML results page: https://app.clear.ml/projects/83586dfcda284ba6b24cfdeb1d9c74b0/experiments/c28dc252cc1c4e85b4c16725fa197722/output/log
…
